generated_images_mnist/mnist_disc.pth (torch, 856866 bytes, 8 tensors)

model.0.weight f4 [64, 1, 5, 5]
000000 b6 8b cf bb 4e 85 3c 3c 25 8f a8 3b a5 46 fa 3c
       -0.0063337935 0.011506392 0.0051440173 0.030551264
000010 7e 78 d9 bc 2b c1 12 3d 1a d3 40 bd cc 1e 82 3c
       -0.026546713 0.03582875 -0.047076322 0.015883826
000020 33 d3 ad bc 55 37 0e 3b f4 6f 9a bc c1 17 a1 3c
       -0.021218872 0.002170046 -0.018852212 0.019664647
000030 55 1b ab bc b7 86 9f 3c 99 9c 13 bb d1 16 e1 3c
       -0.020887056 0.019473417 -0.002252376 0.0274767
000040 b2 a2 1a bc a7 7a c4 3c 0f a4 51 bd 49 e1 02 3d
       -0.009438204 0.023984266 -0.05118185 0.03195313
000050 cc 03 12 bd 69 77 e5 3c 0f 17 52 bc 0e 24 a5 3c
       -0.035648152 0.02801104 -0.01282288 0.020158794
000060 92 c0 6b bc 02 f6 12 3d 79 2a ad bc fa fc 1f 3c
       -0.014389174 0.035879143 -0.021138417 0.009764904
000070 a3 2f 9c 3a f5 8e 8f 3c 66 71 1f bd 7f 9c 60 3d
       0.0011916052 0.017524222 -0.038926505 0.054836746
000080 96 57 30 bd a7 8b 08 3d ba 65 37 bd fb 68 fe 3b
       -0.04305228 0.033336308 -0.04477475 0.0077639795
000090 0a 41 75 bc 9c e8 10 3c 81 37 81 bb 4e 5e f9 3c
       -0.01496912 0.008844521 -0.003943384 0.030440476
0000a0 b9 81 25 bc a1 4f 5a 3b 41 6b 61 bc 55 0f cd bc
       -0.010101729 0.0033311623 -0.0137584815 -0.025031725
0000b0 83 49 2d bc 0d 9e 8f 3c d3 97 80 bc ae 49 d5 3c
       -0.010576609 0.01753142 -0.015697395 0.02603611
0000c0 b2 42 5a bc d3 ef e6 3c 1f 63 0c 3d dd 70 14 bd
       -0.013321565 0.028190529 0.034274217 -0.036240447
0000d0 b2 33 d4 bc 1d ab 0e 3c 47 40 26 3d b9 d4 06 bd
       -0.025903556 0.008707789 0.040588643 -0.032917712
0000e0 ca 5d 4a 3b 6b 00 ac 3c 3b c3 3a 3c ec 6d a9 3b
       0.0030878657 0.020996293 0.011399086 0.0051705744
0000f0 bc ef 6a bc ec 99 22 bd 03 28 82 bc 8e 0f 78 3b
       -0.014339384 -0.039697573 -0.01588822 0.0037851068
000100 44 91 54 bc 7c 3e d9 bc 59 82 24 bd 9a 71 ee 3c
       -0.012974087 -0.026519053 -0.04016337 0.029106904
000110 04 e7 65 39 3d a6 e3 bc 47 34 cf bc e5 86 9f bc
       0.00021925202 -0.02778923 -0.025293482 -0.019473502
000120 ce 25 d4 ba 8d b7 01 bd 03 c7 83 bc ea ed ee 3c
       -0.0016185583 -0.03166919 -0.016086107 0.02916618
000130 44 79 c5 3d 4e 63 3e bd e9 f8 0b 3d b0 fc 5e 3c
       0.0964227 -0.046481423 0.034172926 0.01361005
000140 fa 0a 63 bd 05 65 d9 bc bf 12 73 3d 69 6d c4 3c
       -0.05543039 -0.026537428 0.05934405 0.023977952
000150 89 0a 2f bd 10 9e 4b 3d a4 6b f2 bc 8a 3e 00 bd
       -0.042734656 0.049711287 -0.029592343 -0.031309642
000160 a1 77 8a 3d ac 34 66 3c eb 7a 4e bc da 6b d5 bb
       0.06761099 0.014050644 -0.012602548 -0.006513101
000170 8c b5 49 3c 76 b5 1e bc 1e 4f f9 3c 53 1e b5 3c
       0.012311351 -0.009686818 0.030433234 0.022109186
000180 d3 91 47 bc f9 ec 01 bc fa 65 bd 3c 63 6f 8d bc
       -0.012180763 -0.007930034 0.023119915 -0.017265027
000190 a2 23 91 3c 07 28 08 bc db 9b e9 3c 13 f2 9f bc
       0.017717186 -0.0083103245 0.0285167 -0.01952461
0001a0 30 9f 75 3b 2d 56 00 bc 27 01 40 bb 33 2c 2e 3b
       0.0037478916 -0.007833046 -0.0029297562 0.0026576638
0001b0 95 f5 7e bb 78 2e 6d 3c 2b 92 9a 3b 75 dd fc bb
       -0.0038903703 0.014476411 0.0047171316 -0.0077168294
0001c0 2c 68 d7 bc 94 be a4 bc ca 10 92 3b 4b e4 34 bc
       -0.02629479 -0.020110406 0.004457568 -0.011040757
0001d0 68 12 b1 3c f2 f4 42 3c 4a 0e 1a 3d 4c 26 83 bc
       0.021615222 0.01189922 0.037611283 -0.016009472
0001e0 a4 59 85 bb bd 5d 69 b9 75 09 a4 3c 4a 46 99 bc
       -0.004069524 -0.00022255532 0.02002404 -0.018710274
0001f0 33 f8 37 bc 25 79 03 bc ef 50 9b bc 59 f8 00 3d
       -0.011228609 -0.008024489 -0.01895949 0.031486843
000200 d8 1d b2 bc 0b be 9c bb ff 02 39 3c ce 42 97 3c
       -0.021742746 -0.004783397 0.011292218 0.018464472
000210 c2 35 3b 3d 57 3a f0 bd c4 d6 f8 bb 66 6d 69 bc
       0.045705564 -0.117298774 -0.0075939614 -0.014247274
000220 35 cf 5a 3d ac 05 ce 3d d6 6a c8 3c d3 5f fe bb
       0.053420264 0.100596756 0.024465006 -0.007762888
000230 06 fb 39 bd d1 27 ca bd 0c 48 85 3d 68 13 d8 3c
       -0.04540541 -0.098708756 0.065078825 0.026376441
000240 9c 63 c7 bb 38 85 06 bd 13 69 df bc b2 a5 de 3c
       -0.0060848724 -0.03284189 -0.027271783 0.027178619
000250 72 cc 8e bc 93 fe 6d bc cc ec 3f 3d 23 6a 7a bd
       -0.017431471 -0.014526027 0.046856686 -0.061136376
000260 41 99 0d 3c c0 c8 11 bd 58 67 0f 3d 6f 23 4b 3d
       0.008642496 -0.03559184 0.035010666 0.04959434
000270 e6 44 0c 3b 76 42 63 bc 9e d2 0e bd 3d 7d 29 bb
       0.0021403371 -0.013870826 -0.03486883 -0.0025862001
000280 99 bc 4b bc 8c f8 63 3d b5 9c e7 3b 9c c3 e4 3a
       -0.012435102 0.055656955 0.0070682415 0.0017453316
000290 ba fa 67 bc fc 18 ee 3c 71 ff 2c bc 1d 13 44 3d
       -0.014158899 0.029064648 -0.010558949 0.04786979
0002a0 a6 a2 e5 3c 2e 60 ae bb 80 4c e3 bc f5 c8 a6 3a
       0.028031658 -0.005321524 -0.027746439 0.0012724685
0002b0 b3 1d ea bc d0 e5 88 3b 2f 7b 5f 3c 2b 20 58 3b
       -0.028578615 0.0041777864 0.013640209 0.0032978158
0002c0 30 2c 40 bc e0 b1 14 3c 4b f5 6e bc 90 e1 29 bc
       -0.011729285 0.009075612 -0.01458485 -0.01036872
0002d0 09 93 a2 3c fc 27 b7 bc 38 1e 17 3b be 52 60 bc
       0.019845502 -0.022357933 0.0023058783 -0.013691602
0002e0 d7 1b f2 bc a5 86 61 bd 95 50 46 3b 14 a1 40 ba
       -0.02955429 -0.055060048 0.0030260433 -0.0007348221
0002f0 f1 28 8d 3b 97 45 88 bc c7 e3 f0 bc bb 1e 48 3c
       0.004307859 -0.016634746 -0.029405488 0.012214358
000300 2c 21 82 bc f7 ac d2 bc 62 cd e4 3c 32 f1 fd 3a
       -0.015884958 -0.025717242 0.027929965 0.001937425
000310 7b 18 bc 3c a7 43 57 bc 67 39 24 bc b6 86 4a 3c
       0.022960892 -0.013138688 -0.010023451 0.012361219
000320 bc 9b 65 bc d9 b9 24 3d 72 94 5e bd 7d a4 85 bd
       -0.014014181 0.0402163 -0.054340787 -0.06525514
000330 2e 56 65 3c f0 24 92 3c 67 87 e0 3d 3f e7 0d be
       0.013997598 0.017839879 0.10963326 -0.13857745
000340 a3 5c c9 bd ec 57 a8 bc 33 5c e2 3b 6a aa f8 3c
       -0.09832122 -0.020549737 0.0069079637 0.030354697
000350 9d 53 11 3d f2 8d 7e 3c 54 86 36 3d 24 d4 11 bb
       0.03548013 0.015536772 0.0445617 -0.002225169
000360 83 fc 48 bc b0 21 27 3d 82 a1 39 3d e3 db 68 bc
       -0.012267235 0.04080361 0.04532004 -0.014212581
000370 bd 46 7d 3b 6a 28 53 3a c8 c3 05 bd 1f ac ef bc
       0.00386469 0.00080550334 -0.032657415 -0.029256878
000380 bc b0 47 3c a5 49 67 3c 1f 9b 33 bc 5a 4e 0f bd
       0.012188133 0.014116679 -0.010962277 -0.03498683
000390 54 b5 82 3c a2 b3 0a 3d 12 01 34 3b e8 14 12 3c
       0.015955605 0.033862717 0.0027466458 0.008916117
0003a0 30 f4 74 bd 78 62 08 3d d1 43 34 b9 4d 23 6c bc
       -0.059803188 0.033297032 -0.00017191401 -0.014412713
0003b0 13 92 73 bd 8e 81 3e bd 3b 0e 5f 3d d4 21 26 3d
       -0.05946548 -0.04651027 0.05445693 0.040559605
0003c0 b6 1f 4f bd fc d0 0e 3d d2 66 84 3d 33 6b a9 3c
       -0.05056735 0.03486727 0.06464924 0.020681
0003d0 36 60 0f bc 35 0a 37 3c de 5a b4 3b 46 f8 91 3c
       -0.008750966 0.011171867 0.0055039963 0.017818581
0003e0 fb 87 0c bd d7 2d 23 3b 98 f1 a7 bc a2 14 2d 3d
       -0.03430937 0.002489915 -0.020500943 0.042256005
0003f0 6d 88 aa 3d 8e 26 d3 3c 3f cc d8 3b 3e 07 4d 3d
       0.083268024 0.02577522 0.006616145 0.050055735

model.0.bias f4 [64]
000000 7a 22 75 3d 30 56 45 3d 4e 91 12 be 09 f4 5c 3d
       0.059847333 0.048177898 -0.14313242 0.053943668
000010 91 a2 d3 3d f0 0b 2a be 37 42 44 3d 55 7a d8 bd
       0.103337415 -0.16606116 0.04791471 -0.10570208
000020 aa 5f ff bd 02 fd bd bd 41 55 c8 3c 3b b6 f0 3b
       -0.12469418 -0.09276773 0.024454715 0.0073459423
000030 cb 4c b7 bd 4d 31 bf 3d 04 0c 0f be c6 cf 53 bd
       -0.08950194 0.09335575 -0.13969427 -0.05171182
000040 89 86 22 be 57 a3 ad 3d cd da 32 3d 63 a1 2b be
       -0.15871634 0.0847842 0.043665696 -0.16760783
000050 ba 4e 1d 3d b4 7e 61 3d e8 70 bb bd a9 02 9f 3d
       0.038405158 0.055052474 -0.091523945 0.07764179
000060 af 8d 25 be ec 49 0b bc 82 47 bd bd a2 0e e5 bd
       -0.16167329 -0.008501511 -0.09242155 -0.111844316
000070 52 0c 8c bd 45 63 f7 3c 86 a1 c5 bd 6d c5 89 3d
       -0.068382874 0.030198703 -0.09649949 0.06727109
000080 95 aa 32 bd 49 17 05 be 24 a1 a8 bc 35 65 ed bd
       -0.04361971 -0.12997164 -0.02058465 -0.11591569
000090 79 68 e5 3d 4c 1f 35 be 76 34 bf 3d b2 56 d9 bd
       0.11201567 -0.1768772 0.09336178 -0.10612239
0000a0 e2 f0 97 bd eb a0 bf 3b cd 95 41 3d 5b 48 30 3c
       -0.074189916 0.0058480403 0.047262 0.010759438
0000b0 33 5d f0 b9 b0 1c 00 3e 17 d3 2d bb 50 f6 49 bd
       -0.00045845806 0.12510943 -0.0026523524 -0.049307168
0000c0 0b 8c 27 be 7c ed 6d 3d ba 57 26 be b6 10 e8 bc
       -0.16362016 0.05808781 -0.16244403 -0.02832828
0000d0 84 55 d7 3d 54 69 bb bd 43 0d 1f be 7a 47 82 bd
       0.10514358 -0.09150949 -0.15532403 -0.06361289
0000e0 f3 f4 c0 bd 3d 0e f4 bc 54 ce 51 bd fb ed 06 3e
       -0.0942172 -0.029791946 -0.05122216 0.1317672
0000f0 23 d3 8c bd d6 2a 88 bd ca ef de 3c 51 7c 07 3d
       -0.06876209 -0.06648795 0.02721395 0.03307754

model.2.weight f4 [128, 64, 5, 5]
000000 f4 f6 29 3c 79 83 58 bc 81 17 48 bb 22 af c3 bb
       0.01037382 -0.013214939 -0.0030531588 -0.005971805
000010 28 34 f8 3a c6 00 35 ba 32 bd 6b 3b d4 dc 04 bd
       0.0018936442 -0.00069047173 0.0035970923 -0.03243716
000020 06 e5 9b 3b db d4 d7 3b 2b 40 cd 3b 77 b4 3f 3c
       0.0047575263 0.0065866536 0.006263753 0.011700741
000030 8b d7 3b bd 60 27 c3 bc 0c f9 9e ba b5 aa af 3c
       -0.045859855 -0.023822486 -0.0012128665 0.021443704
000040 bc c7 08 bc 3b bc 21 3d ca 78 27 bd ba 69 36 3c
       -0.008348402 0.03948615 -0.040886678 0.011133606
000050 2a a3 f0 3b d4 09 ff 3c f4 b1 d1 bb 4e fb 41 bc
       0.0073436694 0.031132616 -0.0063993875 -0.011839701
000060 a5 dd e0 3c 8f 5c 02 bd 82 4e b8 3c a7 cd 8b 3b
       0.027449438 -0.031826552 0.022498373 0.004266459
000070 a4 d4 a9 bc d1 5c bc 3b af a4 6b b8 0d 09 cd bb
       -0.020731278 0.0057483693 -5.618174e-05 -0.0062571825
000080 99 b5 25 bd 5e c2 c3 3b 58 fe 99 bc b8 34 77 bc
       -0.04045639 0.005974098 -0.018798038 -0.015088253
000090 37 74 88 bc c2 84 a9 3c 0e e9 8b 39 9a 29 8e 3b
       -0.016656978 0.020693187 0.00026685785 0.0043384554
0000a0 f5 f9 62 bb 02 05 49 3c 40 33 c5 bc 42 50 89 bd
       -0.003463385 0.01226926 -0.02407229 -0.06704761
0000b0 ec 16 44 3c 39 e9 d0 bb d7 53 1e 3c ae 77 38 bc
       0.011968356 -0.0063754586 0.009663544 -0.011259003
0000c0 34 49 09 bc 23 58 8b 3a 46 73 65 3c 9f 9c ee bc
       -0.008379269 0.0010631125 0.014004534 -0.029127417
0000d0 a9 d0 f5 3b 0f a1 25 3b 16 b9 fc bc 59 d5 9f 3b
       0.007501681 0.0025273 -0.030849975 0.004877728
0000e0 33 8c 88 3a 49 f8 45 bd 10 d3 2a 3d 57 cd ec bc
       0.0010417759 -0.048332486 0.04170519 -0.028906507
0000f0 e3 5d ce bc 12 ed 43 3c 44 8a 23 3c 74 e7 70 3c
       -0.025191253 0.011958377 0.009981696 0.01470362
000100 3f 33 b9 3c d6 62 d9 3c 92 d2 34 bd 0f 63 2b bd
       0.022607444 0.026536386 -0.044146128 -0.041842517
000110 95 51 ab 3c af 97 c4 bc 0e cc 4d 3d f4 4c 3d bd
       0.020912925 -0.02399811 0.05024343 -0.046215966
000120 af ca 77 bb 87 68 d4 b9 8b aa 3f 3c 4e 0b 73 bc
       -0.0037810018 -0.0004051367 0.011698375 -0.014834238
000130 53 35 12 bd a8 fa 0f bd 04 e5 9c bd 9f 64 06 bd
       -0.035695385 -0.035151154 -0.07660869 -0.032810804
000140 4b 6e 87 bc 72 3d 3c bd 08 31 b0 bb 7b b5 0c bd
       -0.016532084 -0.045957036 -0.0053769387 -0.03435276
000150 ce 84 35 bd 3f 88 b2 bc db ff 19 bc da bd e9 3c
       -0.044316106 -0.021793483 -0.00939938 0.028532911
000160 27 a4 2e bc d7 3c 77 bc af 1b 4a bc 30 2c bc 3b
       -0.010659254 -0.015090189 -0.012335702 0.0057425722
000170 24 5d 11 bc b5 76 7c bc 64 b8 14 bb 22 b5 47 bd
       -0.008872304 -0.015409161 -0.0022692913 -0.048756726
000180 db 9b ad bc fd 10 bf ba 2c b9 27 bb b0 49 e3 bc
       -0.021192482 -0.0014577206 -0.0025592549 -0.027745098
000190 b7 8a 0b bc 37 71 45 3d 6f 95 aa 3c ad a5 c5 3c
       -0.008516959 0.048203673 0.020823209 0.024126852
0001a0 d2 1f c1 3c be e0 21 bd 8c da 76 bc 59 6f 36 bd
       0.023574743 -0.03952097 -0.015066754 -0.044539783
0001b0 44 39 b0 3a 6e bd 0b bd c5 3e ea 3b 52 10 f0 3b
       0.0013444801 -0.0341162 0.007148596 0.0073261643
0001c0 16 89 bb bc 06 42 3a bc 15 8e 8a 3c 8f 8d 0b 3d
       -0.022892516 -0.01136828 0.016913453 0.034070548
0001d0 0b f3 e3 bc 09 7c 28 3c 75 7a 19 bc de 9f af bb
       -0.027825853 0.010283479 -0.009367575 -0.005359634
0001e0 9e 5a 84 3c 5a 55 28 3c 70 d7 61 3d e4 18 da ba
       0.01615649 0.010274256 0.055137098 -0.0016639498
0001f0 01 f6 6d bc 62 3b 16 bd 77 69 0d 3d f4 ec 74 b9
       -0.014523984 -0.036677726 0.034524407 -0.00023357925
000200 15 3e 8b 3c d2 95 f2 bb f1 30 97 bc 35 d5 06 3d
       0.016997376 -0.007403114 -0.018455954 0.032918174
000210 61 fc a0 bc 17 2f 2b bd ec 75 43 3d fc ce 43 bb
       -0.019651594 -0.041792955 0.04771988 -0.002987801
000220 56 eb 35 3d 8c d4 e3 3c f5 2e 08 3d 7e 78 b5 3c
       0.044413887 0.027811311 0.033247907 0.022152182
000230 1f 48 ed bc 96 7f 67 3c 72 5a 8c 3d bd d3 99 3d
       -0.028965054 0.01412954 0.068531886 0.07511089
000240 b4 cf 25 bb 12 dc 57 3d a4 99 ea 3b 72 7d a6 b8
       -0.0025300803 0.05270011 0.0071594287 -7.938863e-05
000250 df 0c 86 3d fe 0e af 3c 13 a6 80 bc fc 50 d1 bc
       0.06545424 0.021369454 -0.01570419 -0.025551312
000260 cf eb fa 3c d6 3c 04 bc 28 d9 33 bd 06 84 d9 3a
       0.03063002 -0.008071145 -0.04390827 0.0016595132
000270 60 0a 1c bd 21 50 64 bc 08 32 22 bd 42 3f 98 bb
       -0.038095832 -0.01393512 -0.039598495 -0.004646213
000280 21 24 8e 3c dc 95 05 bd b2 4a c9 3c 62 67 12 bc
       0.017351212 -0.03261362 0.02457175 -0.008935781
000290 e9 f6 f0 bb de 1c 51 bd be 37 dd 3b 46 c4 e0 3a
       -0.0073536527 -0.05105292 0.0067510298 0.0017148338
0002a0 56 c6 35 3b 72 cd 55 bd 84 ce b1 bc 00 04 9c bb
       0.0027736626 -0.05219788 -0.02170492 -0.004761219
0002b0 92 b3 9f ba 54 b6 77 bc 54 ba 9b 3c 5a c2 c1 3c
       -0.0012184253 -0.015119154 0.019009747 0.023652244
0002c0 97 df 39 bc 00 3c ac 3c 2b 3b 1f bd 5e 3e 3e bc
       -0.011344812 0.021024704 -0.038874786 -0.011611549
0002d0 34 d0 fa 3c 17 69 7d bc 4d e0 26 3d 2f f5 76 bc
       0.030616857 -0.01546695 0.040741254 -0.015073105
0002e0 2d ae f8 3c 55 82 ed 3b 74 3e 0e 3d 14 28 39 bc
       0.030356491 0.007248203 0.03472753 -0.011301059
0002f0 22 fc a3 bc b6 c3 9f bc 04 a9 04 bd cd 15 37 3d
       -0.020017687 -0.019502502 -0.03238775 0.044698525
000300 d2 f2 26 bc cc 87 f9 3b 3e c3 a2 3c 69 40 a5 bc
       -0.010189729 0.007615065 0.01986849 -0.020172315
000310 43 60 7d 3c 67 dd 8c 3c 0c ca 41 3c 8d 3d 8b bb
       0.015464845 0.017195417 0.011827957 -0.004249281
000320 71 99 da 3c de b6 10 3c b9 9a 87 3d 4d 3e 2b 3d
       0.026684495 0.008832661 0.06621308 0.04180746
000330 86 58 62 3d c2 c3 03 3d a2 4b df 3d de f3 71 bc
       0.055260204 0.03216911 0.10903098 -0.014767615
000340 8e 1a 8a 3d b1 fc 22 3d c3 e2 2d 3c 87 a6 e6 3b
       0.06743346 0.039791767 0.010613146 0.0070388946
000350 24 12 13 b7 55 16 1b 3d 08 3f cd 3c 03 c6 51 bc
       -8.7661065e-06 0.037863094 0.02505447 -0.012803557
000360 dd 8d e3 bc 92 67 27 3d 25 d3 0b 3c 45 8c a1 bb
       -0.027777607 0.040870257 0.0085342275 -0.0049300515
000370 ae a1 23 bc 6e 3e 23 bc 76 a8 be bc 2b 26 83 3c
       -0.009987278 -0.009963615 -0.023273688 0.01600941
000380 dd 13 81 bb b6 54 dc 3b 0f 03 6f 3d 0c 4f 70 b9
       -0.0039391355 0.0067239655 0.058352526 -0.00022917631
000390 4c c7 6b 3d fa 5a 00 3d d7 2e ba 3c c3 1d 96 bc
       0.05756311 0.031336762 0.022727413 -0.018324738
0003a0 f0 4b d8 b9 9c fd 58 bc 51 81 83 bc e2 b1 90 3c
       -0.00041255308 -0.013244059 -0.016052874 0.017662946
0003b0 12 67 29 bc 06 69 cb bc f4 e7 89 3c 25 2a 20 3d
       -0.010339515 -0.024830353 0.016834237 0.039102692
0003c0 60 16 0f 3d d4 01 b9 3c 33 8f 85 3c 28 94 14 3d
       0.034933448 0.02258388 0.016303634 0.036274105
0003d0 13 f1 9b 3d 09 5f d1 3c 3d 44 bb 3c 33 1f 82 ba
       0.07614341 0.025558012 0.022859687 -0.0009927511
0003e0 61 11 91 bc ac a9 01 3c 15 c6 c2 bc 30 11 f1 39
       -0.017708482 0.007913988 -0.023776093 0.00045979908
0003f0 13 51 8e 3c 2d 91 ef 3c 41 31 29 3d 8c 04 92 3c
       0.017372644 0.02924403 0.041306738 0.017824434

model.3.weight f4 [128]
000000 5e 3e 77 3f 81 39 79 3f 68 15 6e 3f 15 b2 79 3f
       0.9657954 0.9735337 0.93001413 0.97537357
000010 b5 51 80 3f ff d7 61 3f cd 31 5d 3f e2 3c 7c 3f
       1.0024935 0.8822021 0.86404115 0.985304
000020 71 2e 6f 3f 02 91 74 3f eb e8 81 3f a6 87 71 3f
       0.9343024 0.95533764 1.0149206 0.9434761
000030 46 d2 75 3f 19 22 77 3f 27 54 70 3f 24 fe 82 3f
       0.96023977 0.96536404 0.93878406 1.0233808
000040 45 d8 79 3f ad 52 78 3f 94 40 7c 3f d3 7c 7f 3f
       0.97595626 0.97001153 0.9853604 0.9979984
000050 d6 9d 71 3f 2a d8 84 3f fc c7 82 3f bf 1b 82 3f
       0.94381464 1.0378468 1.021728 1.0164717
000060 1a 3f 78 3f e2 dd 72 3f d1 99 7f 3f 74 b2 7f 3f
       0.96971285 0.94869816 0.9984408 0.9988167
000070 3c 6b 7e 3f 28 03 7b 3f b4 34 78 3f 5e 93 71 3f
       0.99382377 0.9805169 0.9695542 0.9436549
000080 6f c1 62 3f 0d a6 82 3f 1d 4d 7a 3f 1c 2d 84 3f
       0.88576406 1.0206925 0.97773916 1.0326266
000090 84 da 76 3f 9b 38 76 3f a3 6f 77 3f 51 8b 50 3f
       0.9642718 0.96180123 0.9665472 0.8146258
0000a0 f3 17 71 3f 12 92 72 3f 15 a8 72 3f 0e 53 78 3f
       0.9417717 0.94754136 0.9478772 0.9700173
0000b0 9a 3f 7e 3f fe 9b 83 3f 47 f6 69 3f a4 ae 80 3f
       0.993158 1.028198 0.91391414 1.0053296
0000c0 53 18 7b 3f a5 ba 72 3f 12 6d 78 3f 3a 9d 7d 3f
       0.9808399 0.94816047 0.9704143 0.99068034
0000d0 9f 2b 77 3f 44 4a 7b 3f 7c 28 7e 3f d8 44 7b 3f
       0.96550936 0.98160195 0.99280524 0.9815192
0000e0 bd e8 75 3f 38 13 86 3f 5f 21 72 3f 79 67 80 3f
       0.96058255 1.0474615 0.9458217 1.0031577
0000f0 d3 af 69 3f 20 4d 6b 3f 7d f4 6b 3f ed a2 6c 3f
       0.9128391 0.9191456 0.92169935 0.92436105
000100 75 11 6b 3f 99 35 69 3f 0e e8 73 3f 72 65 6f 3f
       0.9182351 0.9109741 0.9527596 0.9351417
000110 de f1 7a 3f c5 93 62 3f e3 6f 61 3f 9f 6f 78 3f
       0.9802531 0.8850673 0.8806135 0.9704532
000120 52 a2 7d 3f 43 6a 82 3f fa 6d 74 3f 67 fe 62 3f
       0.99075806 1.0188679 0.9548031 0.8866944
000130 06 07 80 3f 82 e3 85 3f f3 e2 77 3f d2 d1 7c 3f
       1.0002143 1.0460055 0.9683067 0.9875766
000140 1e 18 69 3f 08 89 67 3f 51 fe 63 3f ca 7d 73 3f
       0.91052425 0.9044347 0.8905993 0.95113814
000150 aa e0 75 3f 01 24 70 3f 89 82 72 3f 5f 84 81 3f
       0.96045935 0.9380494 0.9473043 1.0118521
000160 15 78 7d 3f de 47 7c 3f 43 41 81 3f f8 2d 78 3f
       0.99011356 0.9854716 1.0098041 0.9694514
000170 74 2c 80 3f 5c c6 73 3f 6c 56 6a 3f 9d d1 73 3f
       1.0013566 0.9522455 0.9153812 0.9524172
000180 36 46 81 3f 08 df 80 3f 72 85 70 3f e5 6e 81 3f
       1.0099552 1.0068064 0.9395362 1.0111967
000190 8b 14 84 3f 70 66 6f 3f 33 20 82 3f 28 31 78 3f
       1.0318769 0.9351568 1.0166076 0.96950006
0001a0 51 cb 7c 3f c7 ab 79 3f 6c cf 81 3f dd aa 7e 3f
       0.98747736 0.97527736 1.0141425 0.99479467
0001b0 d3 55 73 3f 2a 17 6f 3f ef 8b 81 3f 72 60 7e 3f
       0.9505283 0.9339472 1.0120829 0.99365914
0001c0 ac f1 80 3f 52 99 7f 3f f6 9b 7e 3f b4 fb 7c 3f
       1.0073752 0.99843323 0.9945673 0.9882157
0001d0 53 b5 76 3f 84 b2 7e 3f 34 95 7e 3f f2 e0 7f 3f
       0.9637043 0.99491143 0.99446416 0.99952614
0001e0 f9 9d 7c 3f 48 26 76 3f 7e 05 7e 3f 6b 28 79 3f
       0.9867855 0.9615216 0.9922713 0.973273
0001f0 d7 24 76 3f c5 64 6c 3f d9 bc 82 3f 90 6e 73 3f
       0.96149963 0.9234126 1.0213882 0.9509058

model.3.bias f4 [128]
000000 23 e9 62 bd 81 b7 e4 bd af 09 34 be 53 05 c6 bc
       -0.055398118 -0.11167813 -0.17581819 -0.02417246
000010 cb dd c6 bd a0 7e ab bd 25 57 5d be 2e 3d ab bd
       -0.097102724 -0.08373761 -0.21615274 -0.083612785
000020 ba 2d 88 bd 63 c3 26 be a3 e9 87 bc 0b 1f 5f be
       -0.06649347 -0.16285472 -0.016590899 -0.21789186
000030 1e 86 a9 bd 90 d5 f8 bd 89 fc 19 be 7b bf cc bd
       -0.08277534 -0.12150109 -0.15037741 -0.099974595
000040 71 a6 84 bd 53 88 a8 bd da e2 27 bd b7 05 a0 bd
       -0.06477059 -0.08229127 -0.040987827 -0.0781359
000050 69 16 cd bd ca 4f a9 bd cc d8 3c bc c0 fa d9 bd
       -0.1001404 -0.08267172 -0.011526298 -0.1064353
000060 a0 68 13 bd 82 1d 78 bd da 38 9b bd 3d 3a 95 bc
       -0.03598845 -0.060575016 -0.07579203 -0.018216247
000070 be d5 73 bd 5b bd 21 be 90 e7 3c bd 3c 64 72 bd
       -0.059530012 -0.1579489 -0.046119273 -0.059177622
000080 01 1e d3 bd 20 d4 87 bd d8 a9 82 bd 98 be 02 be
       -0.10308457 -0.066322565 -0.063800514 -0.12768018
000090 01 51 62 bd d7 11 c2 bd 06 8e b4 bd 02 63 7c be
       -0.055253033 -0.09476059 -0.08816151 -0.24647143
0000a0 76 65 9d bd 09 bf ba bd df 13 a0 bd 21 d4 34 bd
       -0.07685368 -0.09118468 -0.0781629 -0.044147614
0000b0 18 9e 80 bd 63 de 1d bd a1 c1 22 bd 6a aa 96 bd
       -0.06280154 -0.038542163 -0.03973544 -0.07356723
0000c0 6d 43 aa bd fd 9a 5d be 57 94 72 be d0 d3 35 be
       -0.08313642 -0.21641155 -0.236894 -0.17756581
0000d0 43 be d3 bd d3 f7 0f be 16 3a 97 bd e0 19 d5 bd
       -0.10339024 -0.14059381 -0.07384126 -0.10405326
0000e0 02 98 68 bd b4 d4 e3 bd 2a d4 bc bd ba 0a 50 bd
       -0.05678559 -0.11124554 -0.092201546 -0.05079148
0000f0 2e 35 06 be 26 b7 7b be e5 ca 0e be ab 19 1c be
       -0.13106224 -0.24581584 -0.13944586 -0.15244167
000100 28 97 07 be 9a 74 03 be a4 01 3a be b8 d2 d4 bd
       -0.13241255 -0.12837449 -0.18164688 -0.10391754
000110 95 7f e4 bd 97 46 6a bd bf 92 40 bd 06 37 44 be
       -0.11157147 -0.057196226 -0.047014948 -0.19161615
000120 26 48 15 be 4f 85 9e bc 12 0c 72 bd 20 75 b5 bd
       -0.14578304 -0.019350676 -0.059093542 -0.088602304
000130 a4 3c 23 be 17 8f e4 bd fe 61 5a be 41 64 6f bd
       -0.15941101 -0.11160105 -0.21326444 -0.05844522
000140 ba cb 96 bd 30 f4 92 bd af bf f1 bd 43 cc cd bd
       -0.073630765 -0.07175481 -0.11804139 -0.100487255
000150 fa 6f 6e bd 07 7a fa bd bc 85 a5 bd 1c a7 5e be
       -0.058212258 -0.12230306 -0.080821484 -0.21743435
000160 20 1b e9 bd 42 37 b5 bd 52 ce 29 be 29 14 2f be
       -0.11382127 -0.0884843 -0.16582611 -0.17097534
000170 09 7e cd bd fc ad 74 bd 67 1b 62 bd ff 19 20 bd
       -0.10033805 -0.059736237 -0.055201914 -0.03908729
000180 55 87 ff bd 48 26 d7 bd 38 3d 93 bd ba 3d d7 bd
       -0.124769844 -0.105053484 -0.07189411 -0.1050982
000190 76 11 72 bd aa 86 05 be 9d c4 67 be 6d 9f f0 bd
       -0.059098683 -0.13039652 -0.22633596 -0.11749158
0001a0 63 86 c8 bd 0b f0 d0 bd 3c 5f 5d bd 0f dc 85 bd
       -0.09791257 -0.102020346 -0.0540459 -0.065361135
0001b0 20 d3 88 bd 5b 2d b7 bd 5f 28 df bd 1c b6 82 bd
       -0.06680894 -0.08944198 -0.10896372 -0.06382391
0001c0 b6 f9 e9 bd 76 fe 81 bd 2f af 16 be c0 3c 3d be
       -0.11424582 -0.06347363 -0.14715265 -0.18480206
0001d0 f0 89 94 bd 1c 8b 04 be b0 77 e6 bd e1 e4 af bd
       -0.07252872 -0.12943691 -0.11253297 -0.08588577
0001e0 fb eb 17 be 0d ed 0b be 6b e2 d6 bd 08 92 f5 bd
       -0.14836113 -0.13664646 -0.104924046 -0.11990744
0001f0 46 ff fe bd 80 dc e1 bd ab 20 48 bd 8d b1 d8 bd
       -0.12451033 -0.11028385 -0.04885928 -0.1058074

model.3.running_mean f4 [128]
000000 67 d8 15 bd 67 94 37 be ff fb f0 bd f9 d0 f4 bd
       -0.03658333 -0.17927705 -0.117668144 -0.11953921
000010 c7 84 6a ba 2b 53 8d bd 07 8a 04 bd 5d db b7 3d
       -0.0008946177 -0.06900629 -0.032358196 0.08977387
000020 44 0b 08 be 8c 7f 85 bd 28 e0 04 be 22 27 dd bd
       -0.13285547 -0.06518468 -0.12976134 -0.107984796
000030 37 a3 a0 bc 59 79 01 3c ed 7f 26 ba 0e e6 f6 bd
       -0.019609077 0.007902467 -0.000635146 -0.12055598
000040 2a c3 01 be 39 55 90 bc d7 98 1c be 9c 26 2a bd
       -0.12672105 -0.017618762 -0.15292679 -0.041540727
000050 aa ae 8a bd 21 63 46 3d e7 06 5c bd 28 77 ba bd
       -0.06771596 0.04843438 -0.05371752 -0.091047585
000060 cb 99 43 bc 79 d3 3a bd 43 a8 73 3b 4a b7 86 bd
       -0.011938523 -0.045611832 0.003717915 -0.06577928
000070 03 59 23 3d 47 6b 55 3d 3a 64 9d 3d d2 20 06 be
       0.03987981 0.05210426 0.07685132 -0.13098457
000080 24 20 34 3d 3a 59 5f bd d5 c2 d9 bd 8e 75 f0 bc
       0.043975964 -0.054528452 -0.106328644 -0.02935293
000090 7d 51 42 3d 09 60 e9 3c 4e dd 9e 3c 92 a3 e1 bb
       0.047440995 0.028488176 0.019392636 -0.006885954
0000a0 d2 75 bc bc 70 69 37 bd 3c b6 d5 bc cc 53 eb bd
       -0.0230054 -0.044778287 -0.026087873 -0.11490592
0000b0 35 7f 94 3d 7d 47 c8 3d 64 e5 68 3d 63 8f 85 bd
       0.07250825 0.0977926 0.05685939 -0.065214895
0000c0 ee 1d f3 bc de 05 e3 bd b9 34 b5 bd dc ab 4b bd
       -0.029677358 -0.110851035 -0.08847947 -0.049724445
0000d0 30 35 b7 bd bc 8f 85 bd b7 30 22 bd f3 17 03 be
       -0.089456916 -0.06521556 -0.03959724 -0.12802105
0000e0 f5 2c 78 bd 26 50 cc bd 1d 54 b4 bd 5e ef 54 bd
       -0.06058975 -0.099762246 -0.08805106 -0.05198609
0000f0 3c 96 75 bd 6e 37 0d bd 59 30 fb bc 7c 9d a3 bd
       -0.059957728 -0.03447669 -0.030662702 -0.07989022
000100 0c c7 d3 bd 6d d7 0f bd a2 19 63 3c 7f 28 d1 bd
       -0.103406996 -0.035117555 0.013861092 -0.10212802
000110 31 fb ce bd f2 4d c9 bc 58 80 ca bc 9d ee 2f be
       -0.10106505 -0.0245733 -0.024719402 -0.17180867
000120 5a 4f c5 3b df c9 11 be bc 32 0c bd 34 8b 3f bd
       0.0060214223 -0.14237164 -0.03422807 -0.046763614
000130 a9 da 89 bd a6 7d 3d 3c 37 bc eb bd 7c f5 3e bd
       -0.06731159 0.011565601 -0.115105085 -0.04662083
000140 44 f5 19 bd a6 ff 8f bd 24 a3 b7 bd a9 f7 a9 bc
       -0.03758742 -0.07031183 -0.089666635 -0.020747976
000150 be 4b 94 bd 86 bf 80 bd d0 6a 75 3a a8 13 4c bc
       -0.07241009 -0.0628653 0.00093619246 -0.012455858
000160 73 f0 0f bd 6d 13 b8 bd 45 31 cf bd 66 e8 22 be
       -0.03514142 -0.0898808 -0.10116819 -0.15908965
000170 a9 df 91 bc 30 ed ea ba 9c fc 84 bd 2a bb f6 bd
       -0.017806845 -0.0017923471 -0.06493494 -0.120474175
000180 f7 8d 7e bb 53 04 59 bd 70 f1 66 be a9 bf b6 bd
       -0.0038841942 -0.05298264 -0.22553039 -0.08923275
000190 eb 9a e3 bd 30 0d 98 3a 8a ec c0 bd b6 07 23 bd
       -0.11113533 0.001160061 -0.09420116 -0.039802276
0001a0 be 9b 1b bd 91 7e 84 bd f8 e9 06 3d d2 c5 10 3d
       -0.037990324 -0.06469453 0.032937974 0.035344906
0001b0 dc 16 83 bc d8 9f 73 bd ca 4e db bd aa 93 cf bc
       -0.016002111 -0.05947861 -0.10708387 -0.025338966
0001c0 be b0 99 be 07 65 c1 bd 86 81 2a 3d 12 5b 88 bd
       -0.30017656 -0.094430976 0.04162743 -0.06657995
0001d0 f0 d1 4a 3d da b6 e9 bb 78 5b f3 bd ea b8 f3 bc
       0.04951662 -0.0071323933 -0.11882681 -0.02975126
0001e0 f0 30 da bd e8 46 cd bd f2 05 c5 bd 9f 8b ee bd
       -0.10653865 -0.1002329 -0.096202746 -0.11647724
0001f0 a9 fb 8f bd c7 08 a7 bd 55 f5 6b bd 21 12 31 bd
       -0.07030422 -0.08155971 -0.057607014 -0.04323018

model.3.running_var f4 [128]
000000 6c 3e 61 3a 35 7b 1b 3b cc 4f 14 3c 69 f9 6f 3b
       0.00085923704 0.002372456 0.009052228 0.0036617166
000010 d3 37 83 3b ee 46 41 3b c8 e4 4d 3b cd 18 a2 3a
       0.0040044575 0.002949174 0.0031416882 0.001236701
000020 75 7f bd 3b 1f 4c 3c 3b 10 f5 5f 3b 92 22 b2 3b
       0.0057830163 0.0028731895 0.0034173168 0.00543625
000030 3c 0c 18 3b 81 16 12 3b c9 ad d6 3a 75 76 de 3a
       0.0023200652 0.0022291245 0.0016378696 0.0016972559
000040 0c 5b 1f 3b 96 7a 75 3a 84 77 d7 3a 0c 51 f8 3a
       0.0024315743 0.0009364275 0.0016438817 0.0018945052
000050 e8 81 f4 3a 3e c6 e8 3a 27 9e 25 3b 71 7f c3 3a
       0.0018654438 0.0017759276 0.0025271268 0.00149153
000060 de 50 2f 3b 76 e4 18 3b 83 69 a0 3a be 68 8c 3b
       0.0026751081 0.0023329533 0.0012238476 0.004284947
000070 52 d0 a8 3a 4b 38 a0 3a 2e 1d 64 3b dd 3e 5f 3b
       0.0012879467 0.0012223808 0.0034807432 0.003406457
000080 a4 9d 80 3b 72 38 00 3b 40 9f 86 3a 31 32 20 3a
       0.003925042 0.0019564894 0.0010270849 0.0006110995
000090 86 7d 75 3a 9b 6a 34 3b c6 da 94 3a 82 ab 90 3b
       0.0009364713 0.0027529362 0.0011356703 0.0044149766
0000a0 c4 4a bd 3b 89 34 d7 3a 84 ca 67 3b d2 85 16 3b
       0.005776735 0.0016418855 0.0035368511 0.0022967947
0000b0 0a 2b b1 3a 44 e3 b2 3a c7 86 1b 3b 22 04 f8 3a
       0.0013516855 0.0013648053 0.0023731457 0.001892213
0000c0 b6 20 d3 3a 0f d8 4c 3b 0b 29 31 3b b4 79 41 3b
       0.0016107771 0.003125671 0.002703252 0.0029522004
0000d0 26 cc 3e 3b be 68 14 3b 09 47 43 3b d0 aa 53 3b
       0.0029113381 0.002264544 0.002979698 0.0032297857
0000e0 8a b0 18 3b 0b c5 ab 3a 8f 4e 48 3b 92 32 6c 3b
       0.0023298585 0.0013104988 0.0030564403 0.0036040884
0000f0 b9 1e 3a 3b 4e 0d 21 3b 2f cd 56 3b c8 9e 4f 3b
       0.002839966 0.002457458 0.0032776108 0.0031680334
000100 30 cd 9e 3b ec 73 83 3b 98 2d 81 3b f3 bf 9c 3b
       0.0048462376 0.0040116217 0.003942203 0.0047836243
000110 71 06 51 3b 96 6b 8e 3b a2 85 90 3b b3 e5 90 3b
       0.0031894709 0.0043463213 0.0044104615 0.0044219135
000120 8f 67 be 3a c5 01 49 3b bc 46 a6 3b cf a5 6d 3b
       0.0014526712 0.003067122 0.00507435 0.003626216
000130 6b bd 8a 3a cb 9c b9 3a b1 8b e5 3a 9e 73 e6 3a
       0.0010585015 0.0014161108 0.0017512945 0.0017582064
000140 93 82 5e 3b 47 66 5e 3b a0 f4 68 3b 38 80 72 3b
       0.003395234 0.0033935474 0.0035546198 0.0037002694
000150 b7 80 6a 3a 78 80 01 3b 95 f7 cd 3a 60 be 15 3a
       0.00089455716 0.0019760411 0.0015714044 0.0005712267
000160 a7 7e 28 3b 28 80 f1 3a 93 4b 9c 3a 61 ff 90 3b
       0.0025710256 0.0018425034 0.0011924378 0.004424975
000170 51 6b a9 3a 6a de 46 3b 75 7c 3c 3b 62 69 6a 3b
       0.001292566 0.0030344971 0.0028760706 0.003576838
000180 23 f3 2a 3b e4 61 bd 3a 26 8f b8 3b 20 f1 cb 3a
       0.0026084862 0.0014448729 0.005632299 0.0015559532
000190 ce 43 f5 3a 7c 78 1b 3b ac 3e 3f 3b 32 6e 69 3b
       0.0018712224 0.0023722937 0.0029181642 0.003561866
0001a0 f8 f9 a9 3a 65 89 2a 3b 32 4e 7a 3a fb 97 bc 3a
       0.0012968173 0.0026021835 0.0009548395 0.0014388555
0001b0 e2 2d 71 3b 38 9d 65 3b 7b b4 db 3a d3 05 ca 3a
       0.003680103 0.0035036337 0.0016762161 0.0015413113
0001c0 a4 cb ac 3d 3b f8 5d 3a c4 36 f7 3a 1e 5d 85 3b
       0.08437279 0.000846747 0.0018860926 0.0040699383
0001d0 a9 9d c0 3a c7 68 94 3a cd 89 27 3b 71 e4 b4 3a
       0.0014695424 0.001132273 0.0025564313 0.0013800991
0001e0 21 3c 20 3b 33 a8 6c 3b 32 47 e9 3a 59 df 4c 3b
       0.0024449902 0.0036110997 0.0017797707 0.0031261055
0001f0 bb ed 09 3b 43 2d 78 3b 20 79 be 3a d1 05 46 3b
       0.002104624 0.0037868775 0.0014531948 0.003021587

model.7.weight f4 [1, 6272]
000000 a8 a2 3e bc 1b e2 ee bc c7 8b b5 bc 5e 2e bf bc
       -0.01163546 -0.02916055 -0.022161378 -0.02333754
000010 dd 6e e3 bc 26 29 c6 bc 2b 78 91 bc 15 be 97 bc
       -0.027762825 -0.024189543 -0.017757496 -0.018523255
000020 78 20 d5 3c 4b 48 ac bd a1 90 50 bd 52 b0 43 bc
       0.026016459 -0.08412226 -0.05091918 -0.0119438935
000030 d5 6a 04 bd 0d 26 c3 bc 65 a0 bc bc e7 e9 cd 3c
       -0.032328445 -0.023821855 -0.0230257 0.025135947
000040 4e bf e6 bc dc a5 34 bc 6e 69 93 bc 1a a3 06 3d
       -0.028167393 -0.011025872 -0.017994609 0.03287039
000050 61 08 19 bc fe 27 6d bc 5a 5a 06 3d c4 ce 83 3b
       -0.009340377 -0.014474867 0.03280101 0.004022451
000060 62 7c 2e bb 07 07 61 3c ff 65 e1 3c 73 cb a7 bc
       -0.002662443 0.013734586 0.027514456 -0.020482754
000070 8c 59 49 bc e7 d4 ad 3c 69 1c 80 bc bb 04 c4 bc
       -0.012289416 0.021219684 -0.015638547 -0.023928037
000080 43 82 c5 bb b2 f7 67 3c e7 16 7c bc 1c d8 b0 bc
       -0.0060274913 0.014158176 -0.01538632 -0.021587424
000090 f5 f9 e0 3c c5 72 c3 bc 29 33 6a bb 22 19 03 bb
       0.027462939 -0.023858437 -0.003573606 -0.0020003994
0000a0 e9 98 17 bc cb b7 bb bc 0b 8c 9d bc 4e 0f ea bc
       -0.009252765 -0.022914788 -0.019231817 -0.028571751
0000b0 1c 96 8c bc be c4 f9 bb 5f fa 16 bc 01 a9 7d bc
       -0.017161421 -0.0076223304 -0.009214967 -0.015482188
0000c0 11 fd 95 bc a0 66 f5 bb 5a 53 63 bc 55 7b 6b bc
       -0.018309148 -0.0074890405 -0.013874853 -0.014372666
0000d0 d8 04 42 3a 9a 4d de bb 4a 75 54 ba ba de 9d bb
       0.00074012345 -0.006784153 -0.00081046356 -0.004817811
0000e0 4a 4b e0 ba 36 9e ae bc 23 81 06 bd 6f 06 03 bc
       -0.0017112282 -0.021315675 -0.032837998 -0.007997139
0000f0 91 da 3f 3b d0 6e bb 3b 73 6c 1a bc 07 05 8f bc
       0.0029274563 0.005719997 -0.00942527 -0.017458452
000100 85 e9 ec 3c 2c bc 63 3c d7 83 48 bc 43 7c d1 ba
       0.028919945 0.013899844 -0.012238464 -0.0015982467
000110 d0 37 cb bb 32 6b e8 bc 9b 94 68 bb 4b a2 10 3d
       -0.0062017217 -0.028371427 -0.0035488966 0.035311025
000120 1c c9 1c bc 6e 06 c0 bc 89 4b 5d bb d9 fa b8 3c
       -0.009569433 -0.023440566 -0.0033766946 0.022580551
000130 2a 0e 0d bc f7 42 31 bc 9b 8c 02 3d 45 75 de 3b
       -0.008609334 -0.010819188 0.031872373 0.006788882
000140 37 aa e9 bb 43 ac ba bc 98 ee 0c 3c d9 21 4c bc
       -0.007130887 -0.022787219 0.008601807 -0.012459242
000150 ff ab 19 bc 5a f5 3b 3c b8 20 80 3d 56 af e0 3a
       -0.009379386 0.011472071 0.062562406 0.0017142098
000160 98 b1 ae 3d df 85 ae 3c 4d c1 16 bc 94 af 89 bb
       0.08529967 0.02130407 -0.00920136 -0.0042018387
000170 85 80 ae bb 8c 5b 0e bc c3 b2 93 bc 16 8a 28 bb
       -0.0053253793 -0.008688819 -0.018029576 -0.0025717071
000180 0e cf 24 bc 12 00 c0 ba 71 7a 86 ba d9 73 a3 bb
       -0.010059131 -0.0014648458 -0.0010259879 -0.0049881754
000190 e8 28 b6 b8 27 07 eb ba 45 0e 0c bc ff d2 52 bc
       -8.686056e-05 -0.0017931209 -0.008548324 -0.012867688
0001a0 54 22 15 bb c9 80 40 bb 57 a3 22 bc 68 a2 68 bc
       -0.0022756057 -0.0029373637 -0.009926639 -0.014198877
0001b0 0e dc 1a 3d ec dc b7 bc 9e e2 d5 bb 8b 8e 91 ba
       0.037807517 -0.022444211 -0.006527259 -0.0011105103
0001c0 9c 3e 96 ba 15 35 61 3c 8d 3e 59 3c 9c 77 27 bc
       -0.0011462751 0.013745566 0.013259542 -0.010221388
0001d0 72 0f b5 3c 7d 97 51 3b 63 e5 87 bd cb 05 d2 ba
       0.022102091 0.0031981163 -0.06635549 -0.0016023455
0001e0 dc bb 44 bb 69 e7 9e 3c 45 aa 91 bc c8 42 98 bc
       -0.00300192 0.019397454 -0.017781386 -0.018586531
0001f0 98 da 0d 3c 19 87 30 3c 40 9b 23 bb 4b 3f 92 3c
       0.008658074 0.010774397 -0.0024964362 0.017852446
000200 98 a9 0e 3c b6 0e 40 3c a7 f6 8a 3d fb 4a 66 bc
       0.0087074265 0.011722257 0.067853265 -0.014055963
000210 31 57 94 bc a3 75 40 bb f4 ef fb bb 6a 7e 54 3d
       -0.018107982 -0.0029366992 -0.0076885168 0.05187837
000220 eb a3 28 3d 61 7b b4 3c fe 7e b6 3a 0b 1a 3d bd
       0.04117195 0.022031488 0.0013923345 -0.046167415
000230 92 80 31 bb 88 ff 03 3d 19 6f 5d 3d 80 cb 3d bd
       -0.002708469 0.032226115 0.05406103 -0.04633665
000240 8a f7 39 3c 5e 64 a5 3b e1 10 0b bd dc ae 12 bb
       0.011350522 0.005047365 -0.033951644 -0.0022382056
000250 97 54 c4 bb 7b d0 74 bb d3 d7 c3 bb bd 5d 93 bb
       -0.005991529 -0.003735571 -0.005976656 -0.0044972585
000260 2b 43 5c bb 64 d1 84 bb 62 9e da ba b6 04 38 3d
       -0.0033609371 -0.0040532816 -0.0016679282 0.044926368
000270 e2 32 85 bc 9a 38 79 bc b4 05 07 bc 7c c2 d9 bb
       -0.016259614 -0.015211249 -0.008241106 -0.006645499
000280 fa 43 1c bc 9c 55 dd bb 67 57 af 3c a1 67 4f 3c
       -0.009537691 -0.00675459 0.021403981 0.012658984
000290 4d b8 a5 3b c4 12 83 3d 63 37 45 3d 1a aa 53 ba
       0.0050573708 0.06400064 0.048148524 -0.00080743583
0002a0 a1 8e cd 39 6b 46 54 3c 5b a4 65 bd 31 b4 90 ba
       0.00039206914 0.012956242 -0.056064945 -0.0011040029
0002b0 9c 90 14 bc 5f aa a4 3c da 59 35 3b c3 89 ac 3b
       -0.009067681 0.02010077 0.0027671964 0.005265446
0002c0 d5 bd 61 3d 11 ac 96 3c ce a0 f2 3d cd 00 01 3e
       0.05511268 0.018392595 0.11847077 0.12597962
0002d0 d1 bd 2c 3d 06 a6 8a 3b 13 e2 2e bb 74 df 63 3d
       0.04217321 0.0042312173 -0.0026685044 0.055633023
0002e0 84 c4 dc 3c 36 8d a2 3c 0e 85 04 bc 45 d7 81 bc
       0.026949175 0.019842725 -0.008088363 -0.015849719
0002f0 df 76 86 3c 01 24 3d bc cc 18 c1 3c 77 a0 59 3d
       0.016414104 -0.0115442285 0.023571394 0.053131547
000300 c9 3e 5d 3d 35 ca 46 3c a2 fa 5d 3d bb f0 5f 3d
       0.054014955 0.012133171 0.0541941 0.054672938
000310 6a f8 13 bb 4c 52 1b bc 55 0e 83 bb 2b a6 ce bb
       -0.0022578486 -0.00948007 -0.0039995112 -0.00630643
000320 99 7c 2a 3c 37 88 7e ba 57 e8 36 bc 64 7c 2f bc
       0.010405683 -0.00097096286 -0.011163793 -0.010710809
000330 9a 39 57 3a 2f 2f d0 bb 35 16 00 3a b3 72 fa 3a
       0.00082101824 -0.006353281 0.00048861216 0.0019107669
000340 76 e5 08 3d 83 3f 71 bc 34 fa 46 bb 5c 09 0a bc
       0.033421956 -0.014724615 -0.0030361535 -0.008425083
000350 c8 e0 9e bb 29 fe 14 bc 32 82 8f 3c 43 bb f6 3c
       -0.0048485734 -0.0090938 0.017518137 0.03011859
000360 1c a2 fc 3c af 96 47 bc 19 e0 13 bc bd f8 d2 bb
       0.030839019 -0.012181922 -0.009025597 -0.0064383433
000370 05 08 67 bd 33 fc 64 bd c8 f9 62 3c 2e b1 fc 3c
       -0.056404132 -0.05590458 0.013853498 0.030846205
000380 7d b5 c6 bb 0a f3 e3 bb 9f 48 4d 3b 5f 7d 33 3d
       -0.0060641156 -0.0069564627 0.0031323803 0.043820735
000390 9c 72 bd 3c 9e 74 b1 3c 92 00 09 bb 3f ee 91 3b
       0.02312594 0.021662053 -0.002090488 0.00445345
0003a0 10 d8 ee bb ab b5 09 bc d2 e2 05 3c 81 01 21 3d
       -0.0072889403 -0.008405129 0.008171754 0.039308075
0003b0 b3 ab 9d bc 90 51 a4 bc d5 01 b2 bb 8d 83 10 bc
       -0.019246912 -0.020058423 -0.0054323473 -0.008820427
0003c0 d8 c1 da bb c7 84 57 bc cf d7 25 bc d3 e2 37 bc
       -0.00667594 -0.013154215 -0.010122254 -0.011223513
0003d0 24 01 a5 bb 06 96 7a 3b e5 fa 53 3b 5b 03 a6 3a
       -0.0050355364 0.0038236394 0.003234559 0.0012665795
0003e0 ea ef 18 3a cf bf 48 bc 11 4e a8 3b f4 50 45 bc
       0.000583409 -0.012252762 0.0051362594 -0.0120432265
0003f0 47 c1 f9 bc c7 63 39 3c b3 c2 02 3c 0c 77 07 ba
       -0.03048767 0.011315293 0.00798099 -0.00051675807
